src/ingenieria_datos/NN.pth (torch, 51990 bytes, 5 tensors)

fc1.weight f4 [32, 371]
12.178246 -1.4939302 1.0385638 0.9452412 -0.40429503 -0.037742887 0.8714917 2.820714
-1.0784725 1.003684 -0.929989 -0.37820864 -2.366232 0.109866224 -1.437269 -0.37193415
-2.686353 -1.4743961 -1.4538457 -0.2579838 -1.126269 -2.044693 0.23440787 -2.0578785
1.4608792 -0.36467358 -1.5636121 -2.6477683 2.4587994 2.909737 -2.2379599 4.299412
1.4278294 0.86533624 -0.3406612 0.2043507 -1.0872874 3.913727 -1.1332096 -1.1186943
-1.2262906 0.16250087 2.012467 -1.1162286 0.38068813 -2.6617522 -2.8961074 1.3591013
-1.3391225 4.6967273 1.0055572 -0.27366817 -3.6709816 -4.8264875 1.2441746 0.97900206
-0.33830887 0.54905957 1.6884822 -3.2023108 -2.2827346 0.015448594 -0.9131342 -0.987502
1.9736843 0.929146 -1.1383404 0.040422954 1.4233619 11.061082 0.9387602 -2.8961754
-0.708079 0.01787038 3.1975567 -4.637825 -3.7358665 0.9514111 -1.4838494 -1.2038562
-1.8389764 0.67642385 -1.1177502 -0.8262725 0.036752827 5.9687448 1.8118856 -0.02551537
1.4003683 0.40635034 -0.7747946 -0.32408026 3.0778265 -2.248005 -1.392941 1.0247668
-0.65119636 1.4484657 1.5129942 1.9478487 -0.7341579 -2.9103668 0.2869708 7.5265126
1.4168674 0.39707544 0.00087189814 -3.0552468 0.5408151 1.9726124 -1.0878564 0.65788484
-2.8932407 -1.4903443 -2.1073358 -0.49868622 -1.8900155 -0.12754059 -3.0059118 5.3811207
1.0294694 3.590564 -4.695214 0.38089925 2.6032224 -1.275908 -0.3943063 3.6761572
-1.9379699 1.1620234 -1.7369992 -1.5821744 -1.7793851 -3.0810068 -0.37645328 2.9916794
-2.554379 2.338038 -2.663762 -1.8663325 -3.3772986 -1.2346958 -3.2368007 -0.9878041
-1.2531573 4.015222 -1.4343214 -6.001587 -1.9059687 0.2531811 -1.952669 -1.2655581
3.164475 -3.7410598 -0.22508232 -2.7562904 1.1263456 -1.214114 -2.7749884 -2.971477
-1.2403479 0.9265119 -4.155578 2.620512 -2.271585 0.5978738 -2.0839517 1.1077995
-0.19458252 -2.1848485 -1.0503424 -0.7906011 -0.6272891 0.8699048 0.05778311 2.2001555
0.15697278 1.855285 1.4921724 -1.7743622 1.8827853 1.9588625 -2.3265333 -2.8766246
0.3933831 2.3100967 5.325159 1.3697735 -1.8482506 -1.2040415 0.6365741 -2.7020981
-1.3730289 -1.354824 1.1234814 0.1601638 0.15138683 1.8082615 -1.6779748 1.4650145
-0.89398164 0.25274962 -0.69380313 -0.17050631 0.76455206 0.38635027 0.23013392 -0.3681982
-0.17636174 1.6845881 -0.58079034 0.2363919 0.123036645 1.8041887 -0.91145897 2.0506268
-0.62672436 -1.8174387 0.6847648 1.6389827 0.8276167 -1.2528288 -0.18777266 -1.180161
-1.071085 0.9352405 -0.9969084 -0.10362848 -0.960866 -1.5626668 0.8606116 1.3268263
0.7774576 0.71346265 -0.27534154 -1.4390666 -1.1645745 -0.09138527 0.10099399 0.6583926
-0.6364583 -1.6525365 0.9182703 -0.30535635 -0.4551278 0.821907 0.35391882 2.7573068
-0.42670164 0.02351083 -0.39243558 -2.0613434 0.2504569 -1.0340966 0.8141096 0.9598885
00000000: 18da 4241 1b39 bfbf a9ef 843f 54fb 713f
00000010: c2ff cebe 4998 1abd 141a 5f3f 9486 3440
00000020: 630b 8abf b878 803f c213 6ebf 90a4 c1be
00000030: 5870 17c0 8b01 e13d 6ef8 b7bf 276e bebe
00000040: 35ed 2bc0 03b9 bcbf 9e17 babf 7416 84be
00000050: 9529 90bf 40dc 02c0 9e08 703e 48b4 03c0
00000060: 17fe ba3f 7fb6 babe 7124 c8bf 0975 29c0
00000070: f85c 1d40 2239 3a40 bc3a 0fc0 c894 8940
00000080: 1dc3 b63f ad86 5d3f 256b aebe 4f41 513e
00000090: 3c2c 8bbf 817a 7a40 030d 91bf 6031 8fbf
000000a0: 17f7 9cbf a166 263e 42cc 0040 94e0 8ebf
000000b0: 8ee9 c23e 265a 2ac0 d359 39c0 08f7 ad3f
000000c0: 5e68 abbf 974b 9640 19b6 803f 3c1e 8cbe
000000d0: 5df1 6ac0 9672 9ac0 1d41 9f3f e19f 7a3f
000000e0: d236 adbe 2b8f 0c3f 2f20 d83f a9f2 4cc0
000000f0: 5318 12c0 191c 7d3c 2ac3 69bf eecc 7cbf
00000100: b0a1 fc3f 83dc 6d3f 23b5 91bf 8a92 253d
00000110: b930 b63f 31fa 3041 9752 703f f05a 39c0
00000120: aa44 35bf e764 923c c5a4 4c40 1069 94c0
00000130: 7018 6fc0 ae8f 733f c7ee bdbf f617 9abf
00000140: 9463 ebbf 1d2a 2d3f 7012 8fbf 9886 53bf
00000150: 228a 163d f5ff be40 deeb e73f 9c05 d1bc
00000160: 453f b33f 270d d03e f058 46bf d9ed a5be
00000170: 1cfb 4440 50df 0fc0 e44b b2bf 8f2b 833f
00000180: ceb4 26bf 5367 b93f cba9 c13f 1b53 f93f
00000190: c6f1 3bbf 7343 3ac0 d6ed 923e 31d9 f040
000001a0: e95b b53f 794d cb3e 1890 643a 2a89 43c0
000001b0: dc72 0a3f 907e fc3f e13e 8bbf 246b 283f
000001c0: db2a 39c0 9ac3 bebf 97de 06c0 cd53 ffbe
000001d0: 07ec f1bf 009a 02be dc60 40c0 2432 ac40
000001e0: a7c5 833f cdcb 6540 313f 96c0 3a05 c33e
000001f0: 329b 2640 f450 a3bf 84e2 c9be 2946 6b40
00000200: 660f f8bf 2fbd 943f fd55 debf b184 cabf
00000210: e4c2 e3bf 372f 45c0 7cbe c0be ad77 3f40
00000220: f27a 23c0 6aa2 1540 147b 2ac0 fce3 eebf
00000230: a925 58c0 830a 9ebf be27 4fc0 bbe0 7cbf
00000240: 7567 a0bf b37c 8040 d897 b7bf 000d c0c0
00000250: c8f6 f3bf f4a0 813e 0ff1 f9bf cffd a1bf
00000260: c286 4a40 866d 6fc0 fb7b 66be 1067 30c0
00000270: 182c 903f 1668 9bbf 6999 31c0 ae2c 3ec0
00000280: b8c3 9ebf e22f 6d3f 7ffa 84c0 78b6 2740
00000290: a661 11c0 420e 193f 775f 05c0 60cc 8d3f
000002a0: a440 47be 8fd4 0bc0 9f71 86bf d564 4abf
000002b0: 0596 20bf 15b2 5e3f fbad 6c3d 59cf 0c40
000002c0: 79bd 203e fb79 ed3f 81ff be3f 4d1e e3bf
000002d0: 1cff f03f 02bc fa3f ece5 14c0 9e1a 38c0
000002e0: 8269 c93e a0d8 1340 b467 aa40 bd54 af3f
000002f0: 7a93 ecbf 081e 9abf 85f6 223f 2def 2cc0
00000300: 69bf afbf df6a adbf 3dce 8f3f fb01 243e
00000310: 2605 1b3e 1d75 e73f e1c7 d6bf 9885 bb3f
00000320: fbdb 64bf 6668 813e 159d 31bf 3599 2ebe
00000330: afb9 433f b4cf c53e 3aa8 6b3e 7984 bcbe
00000340: 2c98 34be 95a0 d73f adae 14bf b810 723e
00000350: a3fa fb3d a8ef e63f 6055 69bf 783d 0340
00000360: 0271 20bf d5a1 e8bf bf4c 2f3f 2fca d13f
00000370: b0de 533f b25c a0bf 7a47 40be 840f 97bf
00000380: 5019 89bf ec6b 6f3f 6435 7fbf 2b3b d4bd
00000390: 50fb 75bf 7705 c8bf 0b51 5c3f 72d5 a93f
000003a0: 7607 473f 7da5 363f 91f9 8cbe 5633 b8bf
000003b0: c710 95bf 3328 bbbd f0d5 ce3d 6b8c 283f
000003c0: eeee 22bf 5186 d3bf c313 6b3f ab57 9cbe
000003d0: 8306 e9be 7f68 523f d934 b53e b777 3040
000003e0: a378 dabe c999 c03c 51ed c8be 0ded 03c0
000003f0: e33b 803e 475d 84bf 7d69 503f 41bb 753f

fc1.bias f4 [32]
0.8577342 -0.03880672 -1.1667008 0.020794773 -2.2832382 -0.0912311 -2.667713 -0.090109885
-2.3039317 -1.301429 -1.8795079 0.8509391 -0.08365834 -0.105371274 -0.085923284 -0.21440266
-1.1904603 0.20663834 -2.5791748 -2.5204585 -2.007697 -1.7407407 -0.07157663 -1.4510294
-2.501259 -0.34285522 -0.06770313 -2.2440453 -0.0775059 -0.5631584 -2.3168023 -0.67811793
00000000: 7894 5b3f ccf3 1ebd 7456 95bf cd59 aa3c
00000010: 9320 12c0 5fd7 babd cfbb 2ac0 888b b8bd
00000020: 9e73 13c0 3a95 a6bf b793 f0bf 25d7 593f
00000030: 1055 abbd e5cc d7bd 8cf8 afbd 5f8c 5bbe
00000040: 0161 98bf 0099 533e 3311 25c0 314f 21c0
00000050: 1c7e 00c0 97d0 debf c596 92bd 55bb b9bf
00000060: a114 20c0 b88a afbe f0a7 8abd 709e 0fc0
00000070: 6abb 9ebd 262b 10bf 7d46 14c0 2399 2dbf

fc2.weight f4 [16, 32]
3.519842 -0.070032336 5.6813912 2.978856 14.370989 -0.073999606 17.545301 0.052799582
11.129171 6.2588124 10.767615 3.4370542 0.121786535 0.033683427 0.100220904 3.0368683
4.945848 2.9663317 13.534973 18.688744 11.190571 7.311908 -0.018631438 8.67743
19.905333 2.74482 0.029698739 14.29304 -0.1508108 4.569317 12.803126 3.7293165
3.690656 -0.0021850204 5.7311497 3.0283606 14.387377 0.19406696 17.525248 -0.035636995
11.146591 6.2409315 10.867194 3.7024562 0.053500284 0.16264349 -0.09338448 3.1161625
4.9665513 3.173963 13.595492 18.912067 11.060479 7.3033595 0.116420254 8.6298485
19.719213 2.892803 -0.070248954 14.477213 0.01265188 4.3459177 12.643029 3.7208295
3.6852229 0.0071045863 5.535933 2.8916843 14.310411 -0.1363565 17.643904 0.010816811
11.030229 6.1114345 11.004771 3.5318997 -0.1900689 0.019294802 -0.07226127 3.187415
5.041197 3.2219336 13.676858 18.970306 11.185033 7.2838964 -0.20687167 8.741418
19.949125 2.8612702 0.11485485 14.361421 -0.0245921 4.460907 12.961605 3.6210008
-0.24588178 0.06968961 -0.117337 -0.22934292 -0.14955476 0.062210668 0.050725214 -0.078129984
0.029077537 -0.15232982 -0.12800533 0.001048759 -0.1750497 0.15078136 -0.0474406 -0.07562121
-0.07122742 -0.15817915 0.049156964 -0.20984252 -0.2409486 0.049421888 0.066481456 -0.23506276
-0.07176204 -0.12762661 0.005423112 0.07318644 -0.099985786 -0.25547433 -0.038998462 -0.20710458
3.8570142 -0.080009945 5.586528 3.056517 14.465175 0.23426002 17.65504 0.12335251
11.379174 6.3102746 10.719858 3.7624266 0.03664566 0.03536277 0.13158953 3.1880968
5.101544 3.334841 13.592617 19.042377 10.958474 7.428365 -0.0559927 8.566377
20.105656 2.9501693 -0.025099732 14.60158 0.15177253 4.2781234 12.912051 3.491853
-0.17930213 -0.12127469 -0.07813019 -0.15390466 -0.13520797 -0.11071614 -0.16996585 -0.13923107
0.026396215 -0.14368932 -0.11143093 -0.20936002 -0.043476563 0.05566566 -0.052758288 0.07337767
0.08899629 -0.19357842 0.14024962 0.042883974 -0.13381614 -0.093579255 -0.006539491 0.087690815
-0.1596315 -0.135361 0.080277726 0.06425397 -0.061432973 -0.09109468 -0.1843141 -0.10081047
3.8127646 0.1783882 5.712853 3.0086207 14.442035 -0.0015512315 17.639513 0.079233654
11.318256 6.1739216 10.845678 3.6458528 -0.09969916 -0.051791165 -0.0462086 3.1330914
5.107538 3.1321752 13.523556 18.97175 10.926281 7.3454127 0.0062308465 8.453137
20.01601 2.717366 0.12629981 14.606496 -0.10642098 4.543147 12.742456 3.6768308
3.77168 0.14688607 5.7611938 2.9467084 14.241692 0.111626744 17.6998 0.023941576
11.08557 5.982817 10.876601 3.575387 0.15981346 -0.041609935 0.04271471 3.057818
4.967076 3.2268453 13.565506 18.717379 11.162549 7.053037 0.06557224 8.466274
19.890837 2.994176 0.051306177 14.398037 0.15998423 4.384814 12.577568 3.4573224
00000000: 1745 6140 1d6d 8fbd f5cd b540 94a5 3e40
00000010: 92ef 6541 1b8d 97bd c75c 8c41 6044 583d
00000020: 1611 3241 3148 c840 2748 2c41 b2f8 5b40
00000030: 386b f93d a2f7 093d 9e40 cd3d 0d5c 4240
00000040: 6344 9e40 61d8 3d40 408f 5841 8c82 9541
00000050: 940c 3341 26fb e940 f5a0 98bc c1d6 0a41
00000060: 1f3e 9f41 22ab 2f40 c54a f33c 4bb0 6441
00000070: 256e 1abe d837 9240 9bd9 4c41 1fad 6e40
00000080: b533 6c40 8f32 0fbb 9465 b740 a9d0 4140
00000090: b232 6641 7db9 463e b533 8c41 19f8 11bd
000000a0: 7058 3241 b6b5 c740 07e0 2d41 0bf5 6c40
000000b0: 1d23 5b3d 048c 263e 5d40 bfbd 356f 4740
000000c0: fded 9e40 3622 4b40 2387 5941 ea4b 9741
000000d0: b9f7 3041 1fb5 e940 be6d ee3d dc13 0a41
000000e0: f3c0 9d41 af23 3940 afde 8fbd aaa2 6741
000000f0: d549 4f3c c211 8b40 d949 4a41 1222 6e40
00000100: b1da 6b40 97cd e83b 5d26 b140 5b11 3940
00000110: 72f7 6441 0aa1 0bbe b726 8d41 fe38 313c
00000120: d17b 3041 df90 c340 8b13 3041 a50a 6240
00000130: 6ca1 42be 2210 9e3c b7fd 93bd 9bfe 4b40
00000140: 7c51 a140 2934 4e40 69d4 5a41 30c3 9741
00000150: e5f5 3241 ae15 e940 2bd6 53be d9dc 0b41
00000160: cf97 9f41 0d1f 3740 0539 eb3d 61c8 6541
00000170: 5f75 c9bc c0bf 8e40 bc62 4f41 7abe 6740
00000180: 6fc8 7bbe 6db9 8e3d 624e f0bd dfd8 6abe
00000190: e224 19be 9dd0 7e3d 3ec5 4f3d 9d02 a0bd
000001a0: 0434 ee3c 59fc 1bbe d413 03be 8376 893a
000001b0: 3b40 33be 6e66 1a3e 1351 42bd 4bdf 9abd
000001c0: aedf 91bd b7f9 21be d058 493d f5e0 56be
000001d0: 3bbb 76be 9b6e 4a3d 6e27 883d 4bb4 70be
000001e0: faf7 92bd 8db0 02be 5cb4 b13b c6e2 953d
000001f0: 59c5 ccbd 88cd 82be dabc 1fbd 3913 54be
00000200: 52d9 7640 41dc a3bd d6c4 b240 f99d 4340
00000210: 5b71 6741 dce1 6f3e 863d 8d41 3ea0 fc3d
00000220: 1911 3641 c5ed c940 8a84 2b41 99cb 7040
00000230: c219 163d 8dd8 103d 68bf 063e c709 4c40
00000240: d93f a340 096e 5540 5c7b 5941 ca56 9841
00000250: e955 2f41 2bb5 ed40 9a58 65bd e10f 0941
00000260: 62d8 a041 93cf 3c40 f49d cdbc 12a0 6941
00000270: 426a 1b3e 63e6 8840 c397 4e41 857a 5f40
00000280: fa9a 37be dd5e f8bd b902 a0bd 2f99 1dbe
00000290: f573 0abe 25bf e2bd 870b 2ebe 9792 0ebe
000002a0: e03c d83c 4b23 13be e635 e4bd 7962 56be
000002b0: 7b14 32bd ad01 643d 1319 58bd 0847 963d
000002c0: b043 b63d 6c39 46be 999d 0f3e 1ba7 2f3d
000002d0: 1907 09be 7ba6 bfbd 3a49 d6bb 3e97 b33d
000002e0: 7176 23be 139c 0abe a668 a43d 9697 833d
000002f0: 24a1 7bbd d98f babd d6bc 3cbe b875 cebd
00000300: 5604 7440 65ab 363e b1cf b640 3e8d 4040
00000310: 9312 6741 b152 cbba b91d 8d41 4145 a23d
00000320: 9417 3541 c490 c540 e687 2d41 a755 6940
00000330: 132f ccbd f922 54bd 3b45 3dbd 9284 4840
00000340: f470 a340 8f75 4840 7c60 5841 25c6 9741
00000350: 0cd2 2e41 9f0d eb40 212c cc3b 0d40 0741
00000360: ca20 a041 53e9 2d40 bd54 013e 35b4 6941
00000370: 3ef3 d9bd 7661 9140 1ae1 4b41 3251 6b40
00000380: 3563 7140 4d69 163e b35b b840 df96 3c40
00000390: f8dd 6341 909c e43d 3199 8d41 2021 c43c
000003a0: 7f5e 3141 3d73 bf40 8f06 2e41 24d3 6440
000003b0: 24a6 233e 2e6f 2abd 9ff5 2e3d 4ab3 4340
000003c0: 49f2 9e40 a284 4e40 500c 5941 31bd 9541
000003d0: cd99 3241 7bb2 e140 bd4a 863d dc75 0741
000003e0: 6f20 9f41 94a0 3f40 6d26 523d 5c5e 6641
000003f0: e8d2 233e 6550 8c40 b83d 4941 c544 5d40

fc2.bias f4 [16]
1.2914273 1.3038307 1.3327104 -0.002131893 1.1928073 -0.05912957 1.293126 1.197974
1.882902 1.1525468 1.5237058 21.026266 1.3091878 -0.041065566 -0.65118587 1.4233625
00000000: 7d4d a53f ede3 a63f 4196 aa3f 3bb7 0bbb
00000010: e9ad 983f d931 72bd 2785 a53f 3657 993f
00000020: ef02 f13f a786 933f cb08 c33f cb35 a841
00000030: 7793 a73f 5e34 28bd 1eb4 26bf be30 b63f

fc3.weight f4 [1, 16]
10.055524 9.958997 9.860906 -0.04562642 9.84643 -0.18377836 9.947638 10.039974
-8.003556 10.091636 9.861903 15.149416 9.827175 -0.052151572 -0.16562791 9.848812
00000000: 6de3 2041 0d58 1f41 45c6 1d41 c5e2 3abd
00000010: fa8a 1d41 6530 3cbe 8629 1f41 bca3 2041
00000020: 910e 00c1 5777 2141 5bca 1d41 0264 7241
00000030: 1c3c 1d41 e39c 55bd 5d9a 29be bc94 1d41
