src/ingenieria_datos/NN.pth (torch, 51734 bytes, 5 tensors)

fc1.weight f4 [32, 369]
0	0x4145f36e	12.371931
1	0xc20975dc	-34.365097
2	0x40543d16	3.3162284
3	0x3b13d178	0.0022555273
4	0x3f5942cb	0.84867543
5	0xbf89de6b	-1.0771002
6	0x3ec4e021	0.38452247
7	0x40311cb4	2.767377
8	0xc08e9a96	-4.4563704
9	0x4006133f	2.0949247
10	0xc06405ea	-3.562861
11	0xc046e3ef	-3.107662
12	0xc08c9ec3	-4.39438
13	0xbf4fe0cf	-0.81202406
14	0xc010dcd8	-2.2634792
15	0xbfa7ad80	-1.3099823
16	0xbf6e3f87	-0.93065685
17	0xbfe60e06	-1.797303
18	0xbffc6fdb	-1.9721636
19	0xc00f6ee6	-2.2411437
20	0xbfbdaf58	-1.4819136
21	0xbfd61699	-1.6725646
22	0xbeab83b6	-0.33498925
23	0xbfb7ff43	-1.4374775
24	0x3fcc631d	1.5967747
25	0xbfbcb9a3	-1.4744152
26	0xbfb80726	-1.4377182
27	0xbf2705f1	-0.6524344
28	0x3fa93a1a	1.3220856
29	0x3f5242d7	0.8213324
30	0xc004b76b	-2.073695
31	0x4073c1bf	3.8087003
32	0x3fbbb002	1.4663088
33	0xbf4856e8	-0.7825761
34	0xbf8fd112	-1.1235678
35	0x3f19b4a3	0.60041255
36	0xc0941bd4	-4.628397
37	0x40822464	4.066942
38	0xc039d250	-2.9034615
39	0xc000c87c	-2.0122366
40	0x3f3067e5	0.6890853
41	0xc0301707	-2.7514055
42	0xbf8199f6	-1.012511
43	0xc0a402ff	-5.1253657
44	0xbaa39586	-0.0012480475
45	0xbf819ca4	-1.0125928
46	0xc08c3ac3	-4.382173
47	0xbfe8cca3	-1.818745
48	0x403f7e79	2.9920943
49	0x3f3f407d	0.74707776
50	0x402c8ad1	2.6959727
51	0xc069ffd0	-3.6562386
52	0xbe839667	-0.25700685
53	0xbf95350b	-1.1656812
54	0xbf1528ac	-0.58265185
55	0xbf8655d8	-1.0494947
56	0xc0259ee8	-2.5878239
57	0xbebde355	-0.37087503
58	0x3fa96898	1.3235044
59	0xc0102445	-2.2522137
60	0x3fa04ce0	1.252346
61	0x3d0cd130	0.034379184
62	0xbff8cc95	-1.9437433
63	0xc0bb50d9	-5.853619
64	0x3fef2f14	1.8686242
65	0x3fd6ddd5	1.6786448
66	0xc0cdfc19	-6.4370236
67	0x3e716fd1	0.23577811
68	0x3f50d648	0.8157697
69	0xbba6ae0e	-0.005086667
70	0x3fdf0260	1.74226
71	0xc080ece6	-4.0289183
72	0x3e0570bf	0.1303129
73	0x3e6624a4	0.22474915
74	0x409f9c68	4.9878426
75	0xc0cc071b	-6.3758674
76	0x3f1d3fd1	0.614255
77	0x3db3be6f	0.08776557
78	0xbfca5132	-1.5806029
79	0xbfc4f61f	-1.538761
80	0xc067278a	-3.6117883
81	0xbe94fc1f	-0.29098603
82	0x3f136f1b	0.5759141
83	0xc0c8e295	-6.277659
84	0xbffcc48c	-1.9747481
85	0x404d4eba	3.20793
86	0xc05dcfcd	-3.4658082
87	0x3de3a740	0.11115885
88	0xbf7215c8	-0.94564486
89	0x3fa6ec9c	1.3040957
90	0x3f3deff3	0.7419426
91	0xc0a974d7	-5.2955127
92	0x40123185	2.2842724
93	0xc0b60f73	-5.689386
94	0xbffa2560	-1.9542656
95	0xbf05d947	-0.52284664
96	0xbe9b720f	-0.30360457
97	0xbed81029	-0.4219983
98	0x3fc97643	1.5739216
99	0x3e9b6efa	0.30358106
100	0xbdc350e7	-0.09536915
101	0xc0ca519f	-6.3224635
102	0xbf4bc4cf	-0.7959718
103	0x3f4b884b	0.7950484
104	0x40165a81	2.349274
105	0x3fe2b86c	1.7712531
106	0xbfe4e7b4	-1.788321
107	0xbfcddcbc	-1.6082988
108	0xbfa8761b	-1.3161043
109	0xc08afa59	-4.34306
110	0xc084bf3b	-4.1483436
111	0xbf9f7b12	-1.2459433
112	0xc007cf32	-2.1220212
113	0xc01129ac	-2.2681684
114	0xbfc266a4	-1.5187573
115	0xc0b02883	-5.5049453
116	0x3f3a33a9	0.7273508
117	0xc089370e	-4.2879705
118	0xbf446c36	-0.76727617
119	0x40082fc3	2.1279151
120	0xc00b0008	-2.171877
121	0x406b134e	3.6730533
122	0xc0004726	-2.0043426
123	0x3f498a22	0.787264
124	0x3ee9c13e	0.45655245
125	0x3f08536d	0.532523
126	0xbffdd415	-1.9830347
127	0x407b0be5	3.922601
128	0xc01e5d37	-2.4744394
129	0x3d35e9ce	0.044412427
130	0xc095146a	-4.658742
131	0x3f473029	0.7780786
132	0xbf6892c1	-0.9084893
133	0xbff29280	-1.8950958
134	0x3dd54498	0.10413474
135	0x3ef311c2	0.47474486
136	0xc05206d6	-3.2816672
137	0x40abe5a6	5.3717833
138	0xbfa41e77	-1.2821797
139	0xc026f839	-2.6089003
140	0xc0eedb0c	-7.464239
141	0xc005a1f6	-2.0880103
142	0xc043af2d	-3.057567
143	0xbfd72d5a	-1.6810715
144	0x3f249a3d	0.6429785
145	0x40468188	3.101656
146	0x3fe86983	1.81572
147	0x3f5e6e03	0.86886615
148	0xc1262b2e	-10.385542
149	0xbff9c62e	-1.9513605
150	0xc028b0d3	-2.6357925
151	0xbeff6f8b	-0.49889788
152	0xbf5c7e88	-0.8613057
153	0xc0d76988	-6.731632
154	0x4036ded3	2.85735
155	0xbf96765a	-1.1754868
156	0x3f5539c0	0.83291245
157	0xbea51e3a	-0.32249624
158	0xbfd0728a	-1.6284955
159	0x3fd3a693	1.653521
160	0x3d36ae89	0.044600043
161	0x3ebfd485	0.37466827
162	0xbfa3f2c4	-1.2808461
163	0xbedadabf	-0.42745015
164	0xc0b9a6de	-5.8016195
165	0xc0023d5b	-2.0349948
166	0xbf99a4fa	-1.2003472
167	0xbf088a4a	-0.5333601
168	0xbc9c4d44	-0.019079812
169	0xc020ed53	-2.5144851
170	0xc03469f9	-2.818968
171	0xbff0e028	-1.8818407
172	0xc04f05c2	-3.2347264
173	0xbf561917	-0.83632034
174	0xc01453cb	-2.3176143
175	0x401c91e1	2.4464037
176	0x402e94cf	2.7278326
177	0x3f7bab5d	0.98308355
178	0x40b4be0f	5.6482005
179	0xc01ecd5d	-2.4812844
180	0xbf054472	-0.52057564
181	0x3ff01572	1.8756545
182	0xbfbe7a33	-1.4881042
183	0xbde2e4e1	-0.110788114
184	0xbef0cad6	-0.47029752
185	0xbf36fc54	-0.7147877
186	0x409964fe	4.793578
187	0x3eb1a1dd	0.34693804
188	0xbe14b623	-0.14522605
189	0x3dbe8ab9	0.09303803
190	0x3f00b20f	0.50271696
191	0xc0713553	-3.7688797
192	0xc00ae8d6	-2.1704612
193	0xbfae75cf	-1.3629702
194	0x3f8542b8	1.0410986
195	0x3fa0792d	1.253698
196	0xc01e04ce	-2.4690433
197	0x401b6c49	2.4284842
198	0xbffd24fa	-1.9776909
199	0xbf0e9599	-0.5569702
200	0xbee16deb	-0.44029173
201	0xbfaded28	-1.3587999
202	0xbfa5bc4f	-1.2948092
203	0xc0942b0a	-4.630254
204	0xbfd62d48	-1.6732569
205	0xbff5f663	-1.9215816
206	0xc06730f1	-3.6123621
207	0xbf816d01	-1.011139
208	0xc031541f	-2.7707593
209	0x40583c8d	3.3786957
210	0xc0193f40	-2.3944855
211	0xbe7cfed0	-0.24706578
212	0xc021db27	-2.529001
213	0xc0214761	-2.5199816
214	0xc004f071	-2.0771754
215	0x3e3fde4e	0.18737146
216	0xc02fc888	-2.7466145
217	0xc02ba165	-2.6817257
218	0xbe9f2881	-0.3108559
219	0xbe347fd6	-0.1762689
220	0xc017748a	-2.366488
221	0xc076e9ec	-3.8580275
222	0x3f0b65ba	0.544521
223	0xbf245e8e	-0.6420678
224	0x3f399497	0.72492355
225	0x3f9e714e	1.2378328
226	0xc0cb73d3	-6.3578887
227	0xc0405eda	-3.0057893
228	0x3fa18017	1.2617215
229	0x4089313a	4.287259
230	0x3e6e1a62	0.23252252
231	0x3f0a751e	0.54084957
232	0xbf58600e	-0.8452157
233	0x3ef8a9f2	0.48567158
234	0xc06694ad	-3.6028244
235	0xc0acfbac	-5.4057217
236	0xbfa7a8c1	-1.3098375
237	0xbf913371	-1.1343824
238	0xbf19cf3d	-0.60081846
239	0xc09b1be7	-4.847156
240	0xc0d5eeed	-6.6854157
241	0xbfc60dcb	-1.5472959
242	0x4004d16c	2.075282
243	0x3fe60945	1.7971579
244	0xc000fa0d	-2.015262
245	0x3f807bf7	1.0037831
246	0xbf714db3	-0.94259185
247	0x3cc064c8	0.023485556
248	0x402da33f	2.7130888
249	0x3edb6ad5	0.42854944
250	0xc0abccdd	-5.3687577
251	0xbfb7cc6d	-1.4359261
252	0xc0d37b1d	-6.6087785
253	0xbd87c7d9	-0.06629915
254	0xbf2cb479	-0.6746288
255	0xbddb269e	-0.10700725

fc1.bias f4 [32]
0	0xc00fc670	-2.2464867
1	0xbe832089	-0.2561076
2	0xc0244bf3	-2.5671356
3	0xbec3b3d6	-0.3822314
4	0xbf237e54	-0.63864636
5	0x3ce1a050	0.027542263
6	0xc030af52	-2.7607007
7	0xbdb6fdde	-0.0893514
8	0xbd8d23b4	-0.068915755
9	0xbd379955	-0.044823963
10	0x3ee6a54b	0.45047984
11	0xbdc3f18a	-0.09567554
12	0xbd75535f	-0.059893962
13	0xbd756de7	-0.059919264
14	0xbd453b89	-0.04815248
15	0xbd57c2d7	-0.052676048
16	0xbff097b7	-1.87963
17	0xbde8cb5a	-0.11366911
18	0xc02fa5bd	-2.7444909
19	0x3efe32f4	0.4964825
20	0xbdd62c4d	-0.104576685
21	0xbdc11bbc	-0.09429118
22	0xc0192592	-2.392918
23	0xc02d29d9	-2.7056792
24	0xbdcc0898	-0.09962577
25	0xbd9f5e64	-0.077816755
26	0xc02aff0e	-2.6718173
27	0xbfc44845	-1.5334555
28	0xbda16a9f	-0.078816645
29	0xbdcb996f	-0.099413745
30	0xbda08a00	-0.078388214
31	0xbfa5f3fd	-1.2965084

fc2.weight f4 [16, 32]
0	0x40e1d3d6	7.057109
1	0xbdd1ca9c	-0.10243723
2	0x41b129fd	22.145502
3	0x400d8d81	2.2117617
4	0x402b92b8	2.68083
5	0x4012602d	2.28712
6	0x414f1d22	12.9446125
7	0xbc981e45	-0.018569121
8	0x3dd5d51d	0.10441039
9	0xbd2dba2a	-0.042413868
10	0x402f5435	2.7395146
11	0x3e20b1f0	0.15692878
12	0xbc235c6a	-0.009970764
13	0xbe2bc639	-0.16774835
14	0xbdba71af	-0.09103715
15	0xbdcd19e5	-0.100147046
16	0x40f1762d	7.5456758
17	0xbe0494ec	-0.12947434
18	0x41aa72f5	21.306131
19	0x40348aad	2.820964
20	0x3d05f8bc	0.032707915
21	0xbccc3a53	-0.024930155
22	0x417a03d7	15.625937
23	0x4180ca50	16.098785
24	0xbdcf355c	-0.10117599
25	0x3e20864a	0.15676227
26	0x414a992e	12.662397
27	0x40b32c44	5.5991535
28	0xbd3831ec	-0.044969484
29	0x3e3208f1	0.17386223
30	0xbe129e2b	-0.14318149
31	0x409408f0	4.626091
32	0x410638ee	8.388899
33	0x3cffa2f9	0.031205641
34	0x41a6f265	20.868357
35	0x4060e3ff	3.5139158
36	0x4084acd2	4.146096
37	0x405cd993	3.4507797
38	0x415ff2ec	13.996807
39	0xbd175cd4	-0.036953762
40	0xbd89fad0	-0.06737292
41	0x3e4aac09	0.19792189
42	0x4080d48c	4.0259457
43	0xbc122b70	-0.008921489
44	0x3e43f8b8	0.19137847
45	0x3dbb2224	0.09137371
46	0x3e65a680	0.22426796
47	0x3db6fa78	0.08934492
48	0x410b9153	8.72298
49	0x3de3b101	0.11117745
50	0x41af9475	21.947489
51	0x408033ea	4.006337
52	0x3df6fcd9	0.120599456
53	0x3e1fd45b	0.15608351
54	0x41877948	16.93422
55	0x41896702	17.175297
56	0xbd4eda2c	-0.050501034
57	0x3de50348	0.111822665
58	0x415a0bbb	13.627864
59	0x40dfc5fd	6.9929185
60	0x3e41b48e	0.18916532
61	0xbda8bcba	-0.08239122
62	0xbdb55422	-0.08853938
63	0x40c00fc9	6.001927
64	0xbd9243ab	-0.07141813
65	0xbddb13b6	-0.10697119
66	0xbc05e801	-0.00817299
67	0x3d9a0ed0	0.075223565
68	0xbd9c41a6	-0.07629709
69	0xbdc521c5	-0.09625582
70	0xbddcd423	-0.10782649
71	0xbdf3a33a	-0.11896367
72	0xbcd2598a	-0.025677461
73	0xbcd231da	-0.025658537
74	0xbda1b421	-0.07895685
75	0xbace0006	-0.001571656
76	0x3e0348dd	0.12820764
77	0xbe271cf8	-0.16319644
78	0x3e2f396c	0.17111748
79	0xbc297bce	-0.010344459
80	0x3c93865a	0.0180084
81	0xbd4eb60f	-0.050466593
82	0xbdf11fdc	-0.11773655
83	0xbe03e5c7	-0.12880622
84	0x3dd5ee26	0.10445814
85	0x3b8d47ce	0.0043115383
86	0xbd9a6827	-0.07539397
87	0xbd9fb539	-0.07798237
88	0xbe121641	-0.14266302
89	0x3d4b40c8	0.049622327
90	0x3e3219c6	0.17392644
91	0x3e00ef01	0.12591173
92	0x3d74c79a	0.059760667
93	0xbd054d97	-0.0325447
94	0x3d9e5934	0.07731858
95	0xbe09c3ab	-0.13453548
96	0x41040a94	8.252583
97	0xbdd0e27e	-0.1019945
98	0x41a62cd2	20.771885
99	0x406242a6	3.535318
100	0x4084852c	4.1412563
101	0x4060d370	3.5129051
102	0x415eece0	13.932831
103	0xbd9e87ff	-0.07740783
104	0x3dea81d4	0.11450544
105	0x3e24a032	0.16076735
106	0x406e9146	3.7276168
107	0x3e0b2030	0.13586497
108	0xbce57b2f	-0.02801284
109	0xbbb390b3	-0.005479896
110	0xbd967f09	-0.07348449
111	0xbdb16ef5	-0.086637415
112	0x410ad836	8.677786
113	0xbd5d7345	-0.054065008
114	0x41aedc24	21.85749
115	0x4076a873	3.8540313
116	0x3bf9c93b	0.0076228655
117	0x3e2b3395	0.16718896
118	0x4187556d	16.916712
119	0x4187c7ec	16.972618
120	0x3da6e6f0	0.081495166
121	0x3e411dc5	0.18859012
122	0x415a2568	13.634132
123	0x40dc0481	6.87555
124	0xbdc55213	-0.09634795
125	0xbd4a0338	-0.049319476
126	0xbde1fee4	-0.11034945
127	0x40c241fa	6.070554
128	0x4103dc38	8.241264
129	0x3e5ea8a3	0.21744017
130	0x41a70830	20.878998
131	0x40624419	3.5354064
132	0x408003aa	4.0004473
133	0x40665811	3.5991251
134	0x415fa5e2	13.977999
135	0xbda7819d	-0.08179019
136	0x3da09b1c	0.07842085
137	0xbd00c45d	-0.031437267
138	0x407e8706	3.9769912
139	0x3e587393	0.21137838
140	0xbd1c1903	-0.03810979
141	0x3d6db2c9	0.05803183
142	0x3e41ea78	0.18937099
143	0x3e30988d	0.17245694
144	0x410c4aaf	8.768233
145	0x3c1f25a4	0.009713564
146	0x41b001cf	22.000883
147	0x407f28f9	3.9868758
148	0xbd74efbf	-0.059798952
149	0xbd0bbd99	-0.03411636
150	0x418732e4	16.899849
151	0x418978aa	17.183918
152	0x3d19b648	0.037527353
153	0x3cbcb812	0.02303699
154	0x415ab47e	13.669065
155	0x40d9d24d	6.8069215
156	0xbd9a829e	-0.075444445
157	0xbc997003	-0.01873017
158	0xbdc361ae	-0.09540115
159	0x40c2c50f	6.086555
160	0xbe535331	-0.20637204
161	0x3cd5e1d0	0.026108652
162	0xbdbaec68	-0.09127122
163	0xbd044948	-0.03229645
164	0xbe80054c	-0.2500404
165	0xbe141af4	-0.14463407
166	0x3d873039	0.066009946
167	0xbe6d5065	-0.231752
168	0xbe21d4a9	-0.1580378
169	0x3db52a43	0.088459514
170	0xbe212c94	-0.15739661
171	0x3cbcd770	0.023051947
172	0xbe4ecbad	-0.20194884
173	0xbe4c9949	-0.19980349
174	0x3c4effdb	0.012634243
175	0xbe1a153f	-0.15047167
176	0xbe2119e7	-0.15732537
177	0xbe41528b	-0.18879144
178	0xbe818dd3	-0.25303516
179	0xbe155f50	-0.1458714
180	0xbd892e1e	-0.06698249
181	0x3dec2f2e	0.11532436
182	0xbdc2f81d	-0.0951998
183	0x3d5e1df0	0.05422777
184	0x3bdad072	0.0066776806
185	0xbcbb336e	-0.022851672
186	0xbcde2699	-0.027118014
187	0x3d87f9d0	0.06639445
188	0x3ddda7cd	0.10823021
189	0xbe2ae535	-0.16688998
190	0xbcfc49f0	-0.030796975
191	0xbe55b69b	-0.2087044
192	0xbebe824f	-0.37208793
193	0xbd481f63	-0.048858058
194	0xbdf275d2	-0.11838879
195	0xbebea5ac	-0.37235773
196	0xbedf4544	-0.43607533
197	0xbe8a86a7	-0.27055857
198	0xbdf08d69	-0.11745722
199	0x3d105b69	0.035243426
200	0x3c7d7ea3	0.015472087
201	0x3d4b05c9	0.049566064
202	0xbe9ae8e2	-0.302558
203	0x3d276ee4	0.040877238
204	0xbcaf714d	-0.02141633
205	0x3d61242f	0.054966148
206	0xbdc6fb1f	-0.09715866
207	0x3dc9dc28	0.098564446
208	0xbe2d698e	-0.16934797
209	0x3e104385	0.14088257
210	0xbd1284fd	-0.03577136
211	0xbec65ede	-0.38744253
212	0xbe19a06b	-0.15002601
213	0x3db94a18	0.090473354
214	0xbe345c55	-0.17613347
215	0x3d1887c9	0.03723887
216	0x3c717ee0	0.014739722
217	0xbdc16cf9	-0.09444613
218	0xbda70fbd	-0.08157299
219	0xbe341a49	-0.17588152
220	0xbdac19c2	-0.084033504
221	0x3dc8ebe6	0.09810619
222	0x3d480846	0.048836015
223	0xbed46ddb	-0.41490063
224	0xbe4b5c89	-0.19859518
225	0x3dd13241	0.10214663
226	0x3da93e1d	0.082638
227	0x3d0b286f	0.033974107
228	0xbe166989	-0.14688696
229	0xbe2b5060	-0.1672988
230	0x3dd0197e	0.10161112
231	0x3de5fabc	0.112294644
232	0x3c2ca0e3	0.010536405
233	0x3d881306	0.066442534
234	0xbe1fd7d4	-0.15609676
235	0x3dbf58e4	0.093431264
236	0x3daecc33	0.08535042
237	0x3d76170e	0.06008058
238	0xbe6e0055	-0.23242314
239	0xbe5c1192	-0.21491078
240	0xbcfa6f5c	-0.030570678
241	0x3d934cca	0.07192381
242	0xbe48fabe	-0.196269
243	0xbe707b16	-0.23484454
244	0x3c76d589	0.015065559
245	0x3d8a842e	0.067634925
246	0xbe19e05b	-0.15026991
247	0xbda6cc36	-0.08144419
248	0xbd2d345a	-0.042286254
249	0xbccb316b	-0.024803838
250	0xbe52d11e	-0.20587584
251	0xbe1c1c49	-0.15245165
252	0xbe03f864	-0.12887722
253	0xbd14f661	-0.036367778
254	0xbc6af058	-0.014339529
255	0xbc69735d	-0.014248696

fc2.bias f4 [16]
0	0xbfc5f6cf	-1.5465945
1	0x3fb36b45	1.4017111
2	0xbdd5db1f	-0.10442185
3	0x3f99c3f2	1.2012923
4	0x3fb2e4a0	1.3976021
5	0xbcc0f046	-0.023552071
6	0xbed06999	-0.40705565
7	0xbd26455f	-0.0405935
8	0xbe623e9d	-0.22094198
9	0x3f989e1f	1.1923255
10	0x3fa689b7	1.3010777
11	0xbe6da54b	-0.23207586
12	0x3f99600d	1.1982437
13	0x3fad0e2a	1.3519948
14	0x3faf38c6	1.3689201
15	0x3f8d9b6e	1.1063058

fc3.weight f4 [1, 16]
0	0x41379921	11.474885
1	0x41344215	11.266133
2	0x3d77a2c0	0.060457945
3	0x41376c5a	11.463953
4	0x4136343f	11.387755
5	0xbc59ad63	-0.0132859675
6	0x3e535152	0.2063649
7	0xbe097f1a	-0.13427392
8	0xbd0b35fa	-0.033987023
9	0x41352ca4	11.323399
10	0x413572d3	11.340533
11	0x3e16b8db	0.14718954
12	0x41364e48	11.394112
13	0x4134f453	11.309649
14	0x41382eb7	11.511405
15	0x413720f5	11.445546
